ir_version: 3
producer_name: "onnx-tensorflow"
graph {
  node {
    input: "Placeholder"
    output: "Cast"
    op_type: "Cast"
    attribute {
      name: "to"
      i: 11
      type: INT
    }
  }
  node {
    input: "h1/weights"
    output: "h1/weights/read"
    name: "h1/weights/read"
    op_type: "Identity"
  }
  node {
    input: "Cast"
    input: "h1/weights/read"
    output: "h1/MatMul"
    name: "h1/MatMul"
    op_type: "MatMul"
  }
  node {
    input: "h1/biases"
    output: "h1/biases/read"
    name: "h1/biases/read"
    op_type: "Identity"
  }
  node {
    input: "h1/MatMul"
    input: "h1/biases/read"
    output: "h1/add"
    name: "h1/add"
    op_type: "Add"
    attribute {
      name: "broadcast"
      i: 1
      type: INT
    }
  }
  node {
    input: "h1/add"
    output: "h1/Relu"
    name: "h1/Relu"
    op_type: "Relu"
  }
  node {
    input: "h2/weights"
    output: "h2/weights/read"
    name: "h2/weights/read"
    op_type: "Identity"
  }
  node {
    input: "h1/Relu"
    input: "h2/weights/read"
    output: "h2/MatMul"
    name: "h2/MatMul"
    op_type: "MatMul"
  }
  node {
    input: "h2/biases"
    output: "h2/biases/read"
    name: "h2/biases/read"
    op_type: "Identity"
  }
  node {
    input: "h2/MatMul"
    input: "h2/biases/read"
    output: "h2/add"
    name: "h2/add"
    op_type: "Add"
    attribute {
      name: "broadcast"
      i: 1
      type: INT
    }
  }
  node {
    input: "h2/add"
    output: "h2/Relu"
    name: "h2/Relu"
    op_type: "Relu"
  }
  node {
    input: "h3/weights"
    output: "h3/weights/read"
    name: "h3/weights/read"
    op_type: "Identity"
  }
  node {
    input: "h2/Relu"
    input: "h3/weights/read"
    output: "h3/MatMul"
    name: "h3/MatMul"
    op_type: "MatMul"
  }
  node {
    input: "h3/biases"
    output: "h3/biases/read"
    name: "h3/biases/read"
    op_type: "Identity"
  }
  node {
    input: "h3/MatMul"
    input: "h3/biases/read"
    output: "h3/add"
    name: "h3/add"
    op_type: "Add"
    attribute {
      name: "broadcast"
      i: 1
      type: INT
    }
  }
  node {
    input: "h3/add"
    output: "h3/Relu"
    name: "h3/Relu"
    op_type: "Relu"
  }
  node {
    input: "output/weights"
    output: "output/weights/read"
    name: "output/weights/read"
    op_type: "Identity"
  }
  node {
    input: "h3/Relu"
    input: "output/weights/read"
    output: "output/MatMul"
    name: "output/MatMul"
    op_type: "MatMul"
  }
  node {
    input: "output/biases"
    output: "output/biases/read"
    name: "output/biases/read"
    op_type: "Identity"
  }
  node {
    input: "output/MatMul"
    input: "output/biases/read"
    output: "output/add"
    name: "output/add"
    op_type: "Add"
    attribute {
      name: "broadcast"
      i: 1
      type: INT
    }
  }
  name: "output/add"
  initializer {
    dims: 784
    dims: 32
    data_type: DOUBLE
    name: "h1/weights"
…
  }
  initializer {
    dims: 32
    data_type: DOUBLE
    name: "h1/biases"
…
  }
  initializer {
    dims: 32
    dims: 32
    data_type: DOUBLE
    name: "h2/weights"
…
  }
  initializer {
    dims: 32
    data_type: DOUBLE
    name: "h2/biases"
…
  }
  initializer {
    dims: 32
    dims: 32
    data_type: DOUBLE
    name: "h3/weights"
…
  }
  initializer {
    dims: 32
    data_type: DOUBLE
    name: "h3/biases"
…
  }
  initializer {
    dims: 32
    dims: 10
    data_type: DOUBLE
    name: "output/weights"
…
  }
  initializer {
    dims: 10
    data_type: DOUBLE
    name: "output/biases"
    double_data: -0.32364132736851053
    double_data: 0.17097184059811776
    double_data: 0.006826178974505077
    double_data: -0.45975927229628694
    double_data: -0.03487805748290005
    double_data: 0.5419311755101335
    double_data: 0.010136737837967407
    double_data: -0.3321560686113467
    double_data: 0.4032704592116807
    double_data: 0.017298333626635867
  }
  input {
    name: "Placeholder"
    type {
      tensor_type {
        elem_type: FLOAT
        shape {
          dim {
            dim_value: 50
          }
          dim {
            dim_value: 784
          }
        }
      }
    }
  }
  input {
    name: "h1/weights"
    type {
      tensor_type {
        elem_type: DOUBLE
        shape {
          dim {
            dim_value: 784
          }
          dim {
            dim_value: 32
          }
        }
      }
    }
  }
  input {
    name: "h1/biases"
    type {
      tensor_type {
        elem_type: DOUBLE
        shape {
          dim {
            dim_value: 32
          }
        }
      }
    }
  }
  input {
    name: "h2/weights"
    type {
      tensor_type {
        elem_type: DOUBLE
        shape {
          dim {
            dim_value: 32
          }
          dim {
            dim_value: 32
          }
        }
      }
    }
  }
  input {
    name: "h2/biases"
    type {
      tensor_type {
        elem_type: DOUBLE
        shape {
          dim {
            dim_value: 32
          }
        }
      }
    }
  }
  input {
    name: "h3/weights"
    type {
      tensor_type {
        elem_type: DOUBLE
        shape {
          dim {
            dim_value: 32
          }
          dim {
            dim_value: 32
          }
        }
      }
    }
  }
  input {
    name: "h3/biases"
    type {
      tensor_type {
        elem_type: DOUBLE
        shape {
          dim {
            dim_value: 32
          }
        }
      }
    }
  }
  input {
    name: "output/weights"
    type {
      tensor_type {
        elem_type: DOUBLE
        shape {
          dim {
            dim_value: 32
          }
          dim {
            dim_value: 10
          }
        }
      }
    }
  }
  input {
    name: "output/biases"
    type {
      tensor_type {
        elem_type: DOUBLE
        shape {
          dim {
            dim_value: 10
          }
        }
      }
    }
  }
  output {
    name: "output/add"
    type {
      tensor_type {
        elem_type: DOUBLE
        shape {
          dim {
            dim_value: 50
          }
          dim {
            dim_value: 10
          }
        }
      }
    }
  }
}
opset_import {
  domain: ""
  version: 4
}

