ir_version: 3
producer_name: "onnx-tensorflow"
graph {
  node {
    input: "Placeholder"
    output: "Cast"
    op_type: "Cast"
    attribute {
      name: "to"
      i: 11
      type: INT
    }
  }
  node {
    input: "nodes_output_layer/weights"
    output: "nodes_output_layer/weights/read"
    name: "nodes_output_layer/weights/read"
    op_type: "Identity"
  }
  node {
    input: "Cast"
    input: "nodes_output_layer/weights/read"
    output: "nodes_output_layer/MatMul"
    name: "nodes_output_layer/MatMul"
    op_type: "MatMul"
  }
  node {
    input: "nodes_output_layer/biases"
    output: "nodes_output_layer/biases/read"
    name: "nodes_output_layer/biases/read"
    op_type: "Identity"
  }
  node {
    input: "nodes_output_layer/MatMul"
    input: "nodes_output_layer/biases/read"
    output: "nodes_output_layer/add"
    name: "nodes_output_layer/add"
    op_type: "Add"
    attribute {
      name: "broadcast"
      i: 1
      type: INT
    }
  }
  name: "nodes_output_layer/add"
  initializer {
    dims: 784
    dims: 10
    data_type: DOUBLE
    name: "nodes_output_layer/weights"
…
  }
  initializer {
    dims: 10
    data_type: DOUBLE
    name: "nodes_output_layer/biases"
    double_data: -0.9129777750982252
    double_data: 0.825383435915153
    double_data: 0.18256003776832147
    double_data: -0.529820309414042
    double_data: 0.03552607346057664
    double_data: 2.285893634694979
    double_data: -0.3844379567940824
    double_data: 1.2801582639917526
    double_data: -2.3188348405292833
    double_data: -0.4634505639951816
  }
  input {
    name: "Placeholder"
    type {
      tensor_type {
        elem_type: FLOAT
        shape {
          dim {
            dim_value: 50
          }
          dim {
            dim_value: 784
          }
        }
      }
    }
  }
  input {
    name: "nodes_output_layer/weights"
    type {
      tensor_type {
        elem_type: DOUBLE
        shape {
          dim {
            dim_value: 784
          }
          dim {
            dim_value: 10
          }
        }
      }
    }
  }
  input {
    name: "nodes_output_layer/biases"
    type {
      tensor_type {
        elem_type: DOUBLE
        shape {
          dim {
            dim_value: 10
          }
        }
      }
    }
  }
  output {
    name: "nodes_output_layer/add"
    type {
      tensor_type {
        elem_type: DOUBLE
        shape {
          dim {
            dim_value: 50
          }
          dim {
            dim_value: 10
          }
        }
      }
    }
  }
}
opset_import {
  domain: ""
  version: 4
}

